model.pt (torch, 27624 bytes, 8 tensors)

weight f4 [64, 42]
000000 e7 ab 76 be ce 07 97 3e 33 98 0c 3d 72 cd e5 3c
       -0.24089013 0.29498142 0.034324836 0.028052066
000010 4c a7 32 be f9 22 0c 3e 12 c3 b5 3d 7f 55 e0 3c
       -0.17446631 0.13685216 0.08875097 0.027384518
000020 6a 64 03 3e 0d ab b4 3b ca f1 21 be 76 ed d6 be
       0.12831274 0.005513555 -0.15814891 -0.41978043
000030 c6 d9 b1 3d f4 d7 6e be e5 c0 79 3d ad d6 eb 3e
       0.08684115 -0.23324567 0.060974974 0.46062222
000040 f2 07 64 be 70 83 9b 3f f0 2b 50 be 64 1d 32 be
       -0.22268656 1.2149487 -0.20329261 -0.17394024
000050 65 07 f9 3d 27 2f d7 be 1a 2b 72 3c 18 2d f7 be
       0.121596135 -0.42028162 0.014780784 -0.4827659
000060 28 82 66 3d d6 a5 de bd 0d 7b 49 3d d4 0c e4 bd
       0.05627647 -0.108714744 0.049189616 -0.11135259
000070 eb c9 93 3c 14 01 a1 bd 61 69 c4 3c 10 64 26 be
       0.018040618 -0.07861534 0.02397603 -0.16249108
000080 79 ce 05 3d 6f c2 b2 bd 8b 4c 0a bd 77 d4 be 3e
       0.03266761 -0.087284915 -0.033764403 0.37271473
000090 ce 59 14 3e 43 ec b0 3d f6 4b 5a 3e 56 e8 93 bd
       0.14487383 0.08638813 0.2131804 -0.07222049
0000a0 a8 87 32 3d e7 a6 88 bd 8a 5a 29 3e 6f 63 91 bd
       0.043586403 -0.06672459 0.16538444 -0.070990436
0000b0 0c 7c ca 3d 24 e7 5a ba 65 1b e7 bd 61 42 5e 3d
       0.09886941 -0.00083504827 -0.11284522 0.054262523
0000c0 47 12 0e 3e 43 eb 46 3e 21 e1 c8 3d 2f 3f 63 3e
       0.1387416 0.19425683 0.09808565 0.22192071
0000d0 c2 8c df 3c fc 6b 29 be 1e 54 44 bd ba b7 4b be
       0.027288798 -0.16545099 -0.047931783 -0.19894305
0000e0 79 c2 08 be 1d f6 e6 bd 3b 02 70 3d 29 d6 d5 3d
       -0.13355435 -0.11277411 0.058595877 0.104412384
0000f0 06 19 db 3d c9 22 cb bc b7 b6 e6 3d a1 22 33 bd
       0.10698132 -0.02479686 0.11265319 -0.043734197
000100 7c 15 bb 3a c0 e1 9e 3e 66 87 af bd d8 e8 2f 3f
       0.0014273371 0.3103161 -0.08570747 0.68714666
000110 7f 21 ae 3c 51 61 12 3d 4b 0f 29 be 14 f7 00 3e
       0.021256207 0.03573734 -0.1650974 0.12594253
000120 7d 85 7b bc b4 9f a8 be b1 7c 29 be 1f e4 00 bf
       -0.01535165 -0.32934344 -0.16551472 -0.50348085
000130 21 cc 87 3d b7 4c b6 3e 94 68 4b bd 26 4b bc 3e
       0.066307314 0.35605404 -0.04966028 0.36776084
000140 bc a5 e6 bd 53 62 24 be ef 79 62 be 47 2b 43 bf
       -0.1126208 -0.16053133 -0.22116826 -0.7623791
000150 98 2a 24 be 3a 11 0f be d8 57 c1 bd 32 17 54 3e
       -0.16031873 -0.13971415 -0.09440583 0.20711973
000160 ae f4 80 3d 0e a6 b5 3e e8 73 02 3f be 48 63 bc
       0.06296669 0.35478252 0.5095811 -0.013872324
000170 49 f3 63 3f 4d a5 d8 be 0b 66 90 bd db 5a 19 be
       0.890431 -0.42313614 -0.07050713 -0.14976065
000180 6e 47 3d 3c 76 a3 2a 3d 30 b2 31 be 5c 48 80 be
       0.011552675 0.041659795 -0.1735313 -0.25055206
000190 be 44 0c 3e fa 88 d4 be 9c 47 25 3e 0c 5f 01 bd
       0.13698098 -0.41510755 0.16140598 -0.031584784
0001a0 36 23 4f bd 67 0e 5a 3e f9 5d 88 3b 2a 1c 10 3f
       -0.05057069 0.21294557 0.004161593 0.56292975
0001b0 c9 66 99 bd 73 ec c6 3e 94 f9 3c 3e 7c 50 8f bd
       -0.07490308 0.3885227 0.18454581 -0.06997773
0001c0 e9 38 d6 bc ed 55 5b be 46 e5 49 be f4 cd 50 3e
       -0.026150184 -0.21419497 -0.19716367 0.20391065
0001d0 af eb a8 be ea b6 82 3c 21 41 a2 bc c5 9d 96 be
       -0.32992312 0.01595636 -0.019806447 -0.29417244
0001e0 10 30 91 be 1e 4f 8f be e7 70 4a be 27 ae 2a 3e
       -0.2835698 -0.2799005 -0.19769631 0.16667996
0001f0 36 5e 66 be 8c 63 86 3d 40 2e 8c bc 46 83 76 3e
       -0.22496876 0.06561956 -0.017111897 0.24073514
000200 e8 8a 76 be e8 e2 41 bd 01 2c 14 be 51 98 93 bd
       -0.24076426 -0.047335535 -0.14469911 -0.072067864
000210 42 f9 a4 bc 98 f1 7c 3d a4 a0 84 3d 9b 4b 27 3d
       -0.020138387 0.06175384 0.06475952 0.040843587
000220 51 61 af 3d 00 5a 26 3d 09 4b dc 3d 3a db 0d 3b
       0.085634835 0.040613174 0.10756499 0.0021645562
000230 71 17 d6 bd 14 d4 4f 3e f9 3c 93 bd 00 4e 2f 3f
       -0.1045369 0.20295745 -0.07189364 0.68478394
000240 99 aa 58 3c f2 25 df 3d de 3a 0c 3d 33 5b 2f be
       0.013224267 0.10895909 0.034235828 -0.17124633
000250 2d d6 75 3e 3d 7c a1 be bd dd df 3e 88 bf 10 bf
       0.24007483 -0.315401 0.4372386 -0.56542253
000260 65 ee 1b 3d df 86 3b 3c 97 7e 93 bc eb 09 53 be
       0.038069148 0.01144573 -0.018004699 -0.20609252
000270 ef 20 04 3e d7 0f 00 bf 2d 51 0b be 4a 3e f8 be
       0.12903188 -0.5002417 -0.13605185 -0.48485023
000280 87 a9 17 3e ab 08 9c 3c b4 9d 92 bd d1 4e 94 3c
       0.14810763 0.019047102 -0.07158986 0.018103989
000290 04 79 ab 3b d7 f2 af 3e 23 62 e0 bd 45 c0 4e 3f
       0.005232932 0.3436496 -0.10956218 0.8076213
0002a0 c1 7f 23 be 5b d2 13 3e b7 fd 2a bd 23 aa 56 3e
       -0.15966703 0.14435713 -0.041745868 0.2096334
0002b0 47 70 cb 3d 02 31 a9 3e 55 57 af 3e 15 2b 88 bd
       0.099335246 0.33045202 0.34246317 -0.06648842
0002c0 36 e5 2d 3f 67 7e 8e be cc dc b5 3d 96 91 14 be
       0.67927873 -0.27830812 0.08880004 -0.14508662
0002d0 19 25 21 3c 81 4d 87 bd 99 dc 85 3d 61 ce 9b be
       0.009835505 -0.066065796 0.06536216 -0.30430892
0002e0 45 97 17 3e d0 f1 f7 be 6e 18 e5 bc 39 dd 58 bd
       0.14803798 -0.48426676 -0.02796575 -0.05294535
0002f0 bc 19 fc 3c 99 63 03 3e 6d c0 75 bd 49 d1 f0 3e
       0.03077399 0.12830962 -0.059997965 0.47034672
000300 6f 65 3a be b2 f3 4a 3f 82 04 24 bd 6c f7 56 be
       -0.18202756 0.792781 -0.04004336 -0.20992821
000310 ad 0c d8 bd 1e 43 9a bd 7f 23 43 be 68 0c 98 3d
       -0.10549293 -0.07532333 -0.1905651 0.07424241
000320 37 a2 9e be fd c6 79 bc e9 f0 22 3e e8 56 7a be
       -0.30983135 -0.015245196 0.15912212 -0.24447215
000330 f8 c4 7e bd 8c 3a 12 be db ae 12 be 58 d0 b2 3d
       -0.062199563 -0.14280146 -0.14324515 0.08731145
000340 e9 8d ae bd a6 59 02 be 25 9a 46 3c 54 a3 0e be
       -0.08523161 -0.1272951 0.012121712 -0.13929492
000350 7a 44 7d 3e 91 53 b3 be 8b 46 66 3e a6 46 ea bd
       0.24733153 -0.35024694 0.22487848 -0.11439256
000360 61 f1 d1 3d 4a e3 90 3d e5 a4 2a 3e 0b 5c 05 3d
       0.102511175 0.07074602 0.16664465 0.032558482
000370 48 71 1a be 1c 00 c0 be 3f b6 c0 3d 96 75 a8 3d
       -0.15082276 -0.37500083 0.09409761 0.08225553
000380 85 aa d9 bd fa 66 de 3e 1b 92 3c be 84 20 49 3f
       -0.10628227 0.4343794 -0.1841511 0.7856524
000390 88 f4 ae bd f1 50 61 bc e6 2b bd bd 67 b5 1b be
       -0.085427344 -0.013752208 -0.092368886 -0.15205918
0003a0 b6 5d ae 3d 7d 05 a1 be 65 29 51 bd 8f 13 da be
       0.08513968 -0.314495 -0.051064868 -0.42593047
0003b0 bc 60 ab 3d 13 dc 5a 3e 66 8e 29 be 03 10 b5 3e
       0.0836806 0.21373014 -0.16558227 0.35363778
0003c0 e2 de 2c bd 93 ab 5c be 75 01 4f be 71 a3 cd be
       -0.042204745 -0.21549825 -0.202154 -0.40163758
0003d0 3e d6 35 3e ec dd 9f 3e 76 c2 f5 bc d7 00 f9 3e
       0.17757508 0.31224 -0.029999953 0.48633453
0003e0 bd 76 ab bd da 8a a4 bd 22 bb 68 bd 98 6c 0a bf
       -0.08372257 -0.08034296 -0.05681909 -0.5407195
0003f0 c0 c3 d2 bd 5d e4 0f 3f 2c ab 0e 3d e2 4a b4 3d
       -0.102912426 0.5620783 0.03483121 0.08803345

bias f4 [64]
000000 b5 76 16 bf 1b 24 30 be 76 62 cc be ce 12 a2 be
       -0.5877488 -0.17201273 -0.3991887 -0.31654972
000010 26 6f 6a be ec 3a 11 bf 10 a2 02 bf f4 cf 18 be
       -0.22893962 -0.5673053 -0.5102854 -0.14923078
000020 bb bc 5d bf 3d 1a d5 be d6 97 0c 3d 98 ab aa bd
       -0.86616105 -0.4162158 0.03432449 -0.0833351
000030 26 8f 5a be b7 3e 94 be c4 bb 43 be c3 37 8d 3c
       -0.2134367 -0.28954098 -0.19114596 0.017238503
000040 90 a0 f5 bd 3c 3a a3 be e4 58 a7 be ea b5 a5 be
       -0.119935155 -0.31880367 -0.32685006 -0.32365352
000050 85 2f 47 be 59 ed aa be 56 62 60 be 78 f6 a7 bd
       -0.19451721 -0.33384207 -0.21912512 -0.08201307
000060 37 f6 25 bd 07 47 89 be 4b 35 b9 be 5c 44 d4 be
       -0.040518012 -0.26812002 -0.36173472 -0.41458404
000070 c5 6e 04 bf a9 36 95 3d fc b0 2f bf 57 38 37 be
       -0.5173152 0.07285816 -0.6862943 -0.17892586
000080 09 e5 9d be 37 52 2c bf dc 96 0b bf 9e 0e e9 3d
       -0.30838802 -0.6731295 -0.5452707 0.11379741
000090 ad 71 f7 be 06 ee 24 3e 75 ff 24 bf 52 93 31 bf
       -0.48328915 0.16106424 -0.64452296 -0.6936542
0000a0 51 61 15 bf b0 5b c5 be 5a 7a 92 be 22 60 81 bd
       -0.5835162 -0.38546515 -0.28608972 -0.06317164
0000b0 7c f6 ad be 2e af 32 3e 4c 52 23 bf fe ea 0e bf
       -0.33977115 0.17449638 -0.6379745 -0.5582732
0000c0 60 42 51 be e2 ce fe be a0 3b 07 bf a1 b9 6b be
       -0.20435476 -0.49767214 -0.52825356 -0.2302003
0000d0 cb ad a3 be 4b bc 2a be 9b 46 58 bf 6e 81 ee be
       -0.3196853 -0.1667339 -0.84482735 -0.46583122
0000e0 34 42 0d 3c c8 d9 bb be 66 70 40 be ca 6d cb be
       0.008621741 -0.3668959 -0.18792877 -0.397322
0000f0 59 36 97 be fe c9 bb be 05 a0 52 be 76 a9 b5 bd
       -0.2953365 -0.36677545 -0.20568855 -0.08870213

weight f4 [32, 64]
000000 da 96 0c 3f a5 e9 af 3c e5 6e 40 bf 58 5c 7b be
       0.5491768 0.021473715 -0.7516921 -0.24546945
000010 5e 8f bb be be 06 df 3d be bb 93 3f e2 fc 0a 3d
       -0.36632818 0.10889958 1.1541669 0.033932574
000020 2c 51 00 bf 5c 0c 10 bf aa c1 ad 3d e8 5c d3 be
       -0.5012386 -0.5626886 0.08484204 -0.4128182
000030 07 48 fc bd 09 4e 43 be d8 65 8f 3c 94 1f 77 3e
       -0.123184256 -0.19072737 0.017504618 0.2413314
000040 81 c8 41 bd 1c 07 06 3e c1 fa a5 be da 92 5e 3b
       -0.047310356 0.1308865 -0.32417873 0.0033962042
000050 d2 0b ba bc 59 7c b5 3e 74 99 5c bf 8f 61 35 bd
       -0.022710714 0.35446432 -0.8617165 -0.044282492
000060 e7 1f 7b ba f2 38 86 bc 6d 0b aa be b5 08 d6 be
       -0.0009579644 -0.016384576 -0.33211842 -0.41803518
000070 29 35 26 bd d2 12 65 bd 29 60 95 3e 5f 68 b1 bd
       -0.04057804 -0.05592615 0.29174927 -0.08662485
000080 33 22 87 be de c5 6e 3f 6e 6b b7 bc 4a 1b a1 bd
       -0.2639328 0.9327067 -0.022390094 -0.07866533
000090 73 d8 c4 3f 1c 93 27 be c5 df 57 bd 27 68 f1 bd
       1.5378555 -0.16364712 -0.052703638 -0.117874436
0000a0 cb ae 09 be f4 a2 49 3e d1 78 2f 3e 1e 29 8d bd
       -0.13445584 0.19691068 0.17135932 -0.06892608
0000b0 21 62 ab 3d 6d 11 33 bd c5 08 c5 3e 41 0b c8 bd
       0.08368326 -0.04371779 0.38483253 -0.097677715
0000c0 cc 54 52 bf 89 eb 3c bf ae 6b 95 3e 59 54 4f bf
       -0.8216064 -0.737969 0.29183716 -0.8098808
0000d0 fc 30 6e 3e 9c d5 60 be cb 90 97 3f 6e ee 9f 3f
       0.23260874 -0.21956486 1.1841062 1.2494638
0000e0 98 81 89 3e ee 42 69 bf 02 6a 28 3e 5b e5 5d be
       0.26856685 -0.9111775 0.16446689 -0.21669523
0000f0 96 e6 1c bf e6 6e 01 bf 5c 19 ca 3d 37 e7 41 3e
       -0.61289346 -0.5055984 0.09868118 0.18935858
000100 39 61 fe bd 95 ea c6 3d 05 59 77 3f d8 1c 15 be
       -0.124208875 0.09712712 0.9662021 -0.14561784
000110 0a 44 46 3f 22 cc d4 3c c2 50 19 bf 52 03 d1 bc
       0.7744757 0.025976244 -0.5988885 -0.025514279
000120 5b 2e 3b 3f 82 27 38 3f 8d 5e 7d bd 49 61 f9 bc
       0.7311761 0.71935284 -0.06185775 -0.030441897
000130 b3 f1 2c be 10 40 c0 bd 80 2b 27 3c 83 b4 2f be
       -0.16889076 -0.09387219 0.010203242 -0.17158704
000140 df a2 03 bd ec 99 da bc 33 0a 57 3f e7 b1 43 bd
       -0.032137748 -0.026684724 0.8399994 -0.047777083
000150 24 e9 47 be a9 99 dd bd c2 28 73 3f c3 79 05 3f
       -0.1952253 -0.10820324 0.94984066 0.5213892
000160 b2 e7 a4 bb 98 00 3a be 06 18 98 3f 5c c1 fa 3e
       -0.005032503 -0.18164289 1.1882331 0.48975646
000170 d7 5e 12 3e 48 a0 a3 bb a3 f7 ad 3d 00 61 50 3c
       0.14293991 -0.0049934722 0.084944986 0.012718439
000180 2e 24 82 3e 45 b7 ff be 02 1d bd bc ca 62 5b 3a
       0.25418228 -0.4994451 -0.023085121 0.0008368908
000190 06 79 e6 be a3 92 78 3c d8 a7 4b 3a 1d 93 b4 3e
       -0.4501421 0.01517168 0.0007768846 0.3526849
0001a0 43 e3 bf 3e a9 0a 1c 3e 5e f2 b7 3c 4e 43 a8 bc
       0.37478074 0.15238442 0.022454437 -0.020539906
0001b0 f7 48 c1 3d d5 cc 8f 3d dd 33 0c bf d7 0d 90 3c
       0.09437745 0.070214905 -0.5476664 0.017584724
0001c0 78 fd 58 3f 16 b2 29 3f 8f a7 05 3e c7 1f 4b 3f
       0.8476176 0.6628736 0.130522 0.79345363
0001d0 63 44 31 3e 14 7d 8e 3f c6 09 2f bf 51 fe 1a bf
       0.17311244 1.1131921 -0.6837429 -0.60544306
0001e0 42 bd e3 bc c8 5c 62 3f fb c8 31 3d 69 df 85 3e
       -0.027800206 0.8842282 0.04340456 0.2614701
0001f0 08 bb 59 3f 4c 0e f2 3e 65 eb 2b 3e 90 d3 14 3f
       0.8505101 0.47276533 0.16789015 0.5813532
000200 03 56 81 bd 80 9f e2 be e4 c0 cd bd 67 43 2a 3b
       -0.063152336 -0.44262314 -0.100465566 0.0025980116
000210 89 cc 32 be 18 89 14 bf af 27 da bd c7 d1 81 3f
       -0.17460836 -0.5802169 -0.106521 1.0142144
000220 4f ed 52 be 65 42 ac bd cd b5 22 3e 0f 94 13 3e
       -0.20598339 -0.08411101 0.15889664 0.14411949
000230 0b d7 17 3e f0 5d a5 3d dd 70 85 3f a9 e2 a4 3d
       0.14828126 0.08074558 1.0425068 0.080510445
000240 ca 10 f6 3e 48 d1 ba 3e a6 f7 67 bd 35 40 8f 3f
       0.48059684 0.36487794 -0.05663266 1.119147
000250 1c d0 fc 3d c3 5c 6d bc ba f8 18 bd b4 db 9d bd
       0.12344381 -0.014487448 -0.03734658 -0.07707921
000260 16 6f 5d 3f 21 c0 d0 3d 97 0d 1c be 53 98 ee 3c
       0.8649763 0.10192896 -0.15239559 0.029125368
000270 7f 80 80 be 0d 1d 5f 3c ce 10 25 bf 54 45 a4 3e
       -0.25098035 0.013617766 -0.64478767 0.32084143
000280 80 46 8a 3a d5 62 32 bd 1d 54 46 3f 79 e6 0f 3d
       0.0010549575 -0.043551285 0.77472097 0.035131905
000290 31 48 89 3d 0f a3 8d 3d 6d 63 93 3f 69 62 49 3f
       0.067032225 0.069158666 1.1514717 0.78665787
0002a0 f5 18 c2 3e d1 ff 12 bf 9e cb e5 be c7 7c 5d 3e
       0.37909666 -0.57421595 -0.4488191 0.2162963
0002b0 4a 46 60 be f1 0c 50 bd d9 21 71 bd 09 4b 70 3f
       -0.21901813 -0.050793592 -0.05887017 0.93864495
0002c0 73 11 e5 bc 69 a4 b2 bd c8 c8 0d bd d6 27 68 3d
       -0.027962422 -0.08722765 -0.034615308 0.056678616
0002d0 88 a5 13 bf 38 7f e9 3d 85 e4 68 be 23 1d 15 3d
       -0.57674456 0.11401218 -0.22743423 0.03640474
0002e0 e9 97 d0 3e f9 f5 95 bc 44 11 9a be eb 4d 94 3a
       0.40740898 -0.018305765 -0.30091298 0.0011314725
0002f0 11 c5 d4 3b ab 19 1f 3c a7 88 90 be f7 ae b4 3d
       0.0064932187 0.00971071 -0.28229257 0.088224344
000300 51 28 e8 bc 4c aa 0b be 66 f7 db 3d 34 ea 52 3e
       -0.028339537 -0.13639182 0.10740547 0.20597154
000310 16 d0 7b bd 26 0b c5 be 37 12 bc be 2e 06 95 3f
       -0.061477743 -0.38485068 -0.36732647 1.1642511
000320 60 a5 38 be d7 2e 16 be 0c 70 1c 3e e5 f2 32 3e
       -0.18031836 -0.14666305 0.15277117 0.1747547
000330 06 57 50 3d 11 4c 14 3e 17 36 aa 3f 71 f9 ee 3c
       0.050864242 0.14482142 1.3297757 0.029171677
000340 f0 41 b4 3e 41 a5 cd 3e d9 a5 8e bd 21 4d 8d 3f
       0.35206556 0.4016514 -0.06965227 1.1039163
000350 50 aa 39 3e f5 c8 89 be 7b cf 25 bb 38 ce 64 3c
       0.18131375 -0.2691113 -0.002530067 0.013965182
000360 23 c9 80 3f 14 dd 4e bc 25 ed 5b bd af a7 23 3e
       1.0061382 -0.012625951 -0.053692956 0.15981935
000370 3f 97 c9 bb af 06 99 3c 29 f2 e6 be 82 9d a1 3e
       -0.006152063 0.018679945 -0.4510663 0.3156548
000380 86 51 15 3e ae 92 11 be 0e be 16 3f b1 55 7f bd
       0.1458188 -0.1421611 0.5888375 -0.06233758
000390 6c 40 f7 be 93 8f 3b 3e 40 b6 9e 3f 84 05 24 3f
       -0.48291337 0.18316488 1.2399368 0.64070916
0003a0 cd 4d bd 3e b3 3d aa be b0 09 97 be 73 c3 51 3d
       0.3697342 -0.33250198 -0.29499578 0.051211786
0003b0 19 00 7f be b8 bd b6 3a 0f df 50 3d a4 45 4a 3f
       -0.24902381 0.0013942039 0.050993975 0.79012513
0003c0 4e 39 ba 3d 70 d8 11 3e 01 cc b3 be c1 9b 3a 3d
       0.09092961 0.1424272 -0.3511658 0.045558695
0003d0 77 30 b0 be 44 f5 a6 bb 8a da d9 be 00 2e 42 bf
       -0.34411976 -0.005095156 -0.42549545 -0.7585144
0003e0 d2 d6 d5 3e 3d f8 08 3d bd d0 04 be 76 85 07 3e
       0.41765457 0.033439863 -0.12970252 0.13234505
0003f0 9f d1 c0 bc c8 ee cc 3e 38 36 df bd f7 4f a0 bd
       -0.023537455 0.40025926 -0.10899013 -0.07827752

bias f4 [32]
000000 66 16 c6 3e 25 0a 9e bc c3 74 a2 3d a3 df d8 3d
       0.38688964 -0.019291947 0.07932427 0.1058953
000010 c0 42 aa 3d 5e 51 a2 3e eb 8f 89 3e 48 14 1d bd
       0.08313513 0.31702703 0.26867613 -0.03834942
000020 6a e6 e5 3e b5 24 31 3d 38 44 83 3e bf 22 1f 3d
       0.44902354 0.043247897 0.25637984 0.038851496
000030 06 37 62 be 7a a0 3c 3f f2 cb 66 bd 11 1c 39 3e
       -0.22091302 0.7368237 -0.05634684 0.18077113
000040 92 61 f4 bd e8 c6 80 3e 4c 9c 74 3e 16 34 bb 3a
       -0.119326726 0.25151753 0.23887748 0.0014282491
000050 42 c7 62 be dc e3 0c be 6c 7a 50 3e 5d c8 27 3e
       -0.22146323 -0.13758796 0.203592 0.16385026
000060 73 84 8b 3d 50 23 f2 3c c8 f9 ca 3c b5 6a 91 bd
       0.06812372 0.029557854 0.024777308 -0.07100431
000070 ac 60 19 3d 58 25 cc bc f3 4d 36 3f 26 2b c3 3d
       0.03744571 -0.02492015 0.7121269 0.09529714

weight f4 [21, 32]
000000 d5 17 4c bf 4d 4e 0c 3e 0a 10 91 3e 71 e6 fe 3e
       -0.79723865 0.13701744 0.2833255 0.49785188
000010 7f f8 84 3f b7 4b fc 3e e9 e1 01 bd a9 2c 7b 3e
       1.0388335 0.49276516 -0.031709585 0.24528755
000020 b7 4a 18 3f a5 c0 23 bd 8f 1e 74 be 71 5f 76 3d
       0.59489006 -0.039978642 -0.23839782 0.060149614
000030 97 e7 a6 3d dc 9f ab 3e 44 01 d8 3f be 0e 8f bd
       0.08149641 0.335204 1.6875386 -0.06985234
000040 05 3f 2a 3c 3e 64 19 3f 00 66 19 3f d6 5c a8 be
       0.010391002 0.5991858 0.59921265 -0.32883328
000050 c5 e2 47 3d ff 4f ac 3e 8a d2 f9 bd a6 fd 55 be
       0.04880025 0.33654782 -0.1219836 -0.2089754
000060 2e b3 c4 3e 5f fa b2 3e 98 2b 31 3f d9 e9 0a 3f
       0.38417953 0.34956643 0.69207144 0.54263073
000070 45 4f 91 bd 8f 35 f6 3b 20 c1 a1 3f d6 12 e7 3d
       -0.070951976 0.007513709 1.2637062 0.112828895
000080 4e 1a 17 bf 50 b1 ad 3e e4 f8 7b 3e d8 02 8e 3e
       -0.5902451 0.3392434 0.24606663 0.27736545
000090 82 50 e9 3d 17 b5 cb bd ec f0 4e 3e 97 aa 84 3e
       0.11392309 -0.099466495 0.20209092 0.259114
0000a0 c5 33 e8 be a5 ef b8 3e 3d 38 51 3e c9 eb ca 3e
       -0.45351997 0.36120334 0.2043161 0.39633015
0000b0 80 7d 92 3e 51 5f 90 bf 1d 2a a9 3e 8b 1f b3 be
       0.28611374 -1.1279088 0.33039942 -0.34985003
0000c0 c3 52 87 3e 2f 41 8e be 2d 9c cb be 79 88 92 3e
       0.2643033 -0.27784106 -0.3976759 0.28619745
0000d0 bc d1 13 3f d4 56 a7 3e ee 68 94 3e 95 de 32 bf
       0.57741904 0.32683432 0.28986305 -0.69870883
0000e0 40 27 ac 3e 90 42 a5 3e dd ea 07 3f 8e 88 d0 bb
       0.33623695 0.32277346 0.5309275 -0.006363935
0000f0 18 e4 58 bd f7 dd d6 3e ff 17 35 bf 38 0f a0 3e
       -0.052951902 0.4196622 -0.7073974 0.3126161
000100 98 ab 05 3d 2d 9a 16 3f 0e 7f 85 3d b1 c3 ca 3c
       0.032634348 0.58829004 0.065183744 0.024751516
000110 96 0b 23 bf 47 71 73 bc 44 30 dc 3e 98 29 0d 3f
       -0.63689554 -0.01485855 0.43005574 0.5514159
000120 6b 37 56 3d e7 15 90 bd 11 47 b5 3d 03 30 6c 3f
       0.052298944 -0.070354275 0.088514455 0.9226076
000130 b8 16 2f 3f 5f 95 6d 3c 12 58 76 bb f2 2b 4a be
       0.6839404 0.014500945 -0.0037589115 -0.19743326
000140 a1 72 78 3f 15 85 a0 3a 5b 78 92 bc 94 e4 c2 3d
       0.9704991 0.0012246693 -0.017879656 0.09516254
000150 92 a2 38 3f e3 45 af be fb 9a 89 3c 78 02 84 be
       0.7212306 -0.34233007 0.016797533 -0.25783134
000160 91 65 b8 3c 8c 79 ab 3c 5b 88 4f 3d 3a 50 8f 3c
       0.022509368 0.020931982 0.050667148 0.01749431
000170 af c0 80 3e 95 d0 43 3f 44 d2 b2 3d 23 46 26 3c
       0.25147006 0.76490146 0.08731511 0.010148558
000180 b0 c4 db 3d 59 96 80 3d 66 a1 0b 3f 96 0d 97 3e
       0.107308745 0.062786765 0.5454315 0.29502553
000190 63 c9 06 3f 93 a9 53 3e de 16 24 3e 64 bb ce 3d
       0.5265104 0.20670156 0.16024348 0.10094336
0001a0 01 83 a8 3e 88 e2 47 be 3c 4f 4d 3e ae 67 1d 3d
       0.32912448 -0.19520009 0.20049757 0.038428955
0001b0 46 f3 d6 bb 5e e8 8b 3e b4 82 02 3f 94 25 b3 be
       -0.006559762 0.2732572 0.5098069 -0.34989607
0001c0 85 c0 52 bd 3e fd 2f 3e 3d 9f 49 3d 49 0b 97 3e
       -0.051453132 0.17186448 0.049224127 0.29500797
0001d0 0e 83 35 bc 14 35 90 3e 2d e1 e9 3d f9 f3 e4 be
       -0.011078609 0.28165495 0.11419902 -0.44717386
0001e0 c1 ba ec 3e 55 41 1e 3f a1 04 5a 3e ab af 64 3e
       0.46236232 0.6181844 0.21290828 0.22332637
0001f0 ce 3d 04 bd 18 c7 01 bd f9 45 9a 3e aa 2e 19 3f
       -0.032285504 -0.03168401 0.3013151 0.5983683
000200 03 6a 77 3e af 78 d5 3d 99 5a 2d 3e 31 e0 3d 3e
       0.24161534 0.10423409 0.16929092 0.18542553
000210 50 89 c7 bd 1d a4 1c 3e e6 17 ef 3e 6f b7 e9 3e
       -0.09742987 0.15296979 0.4669792 0.4564776
000220 f4 2e 78 3e 52 b9 03 c0 2f 1a e6 bf 05 c8 96 3d
       0.24236661 -2.058186 -1.7976741 0.073623694
000230 d9 70 2b 3e 92 98 ae 3d f9 4f 19 3f a0 0f f8 be
       0.16742267 0.08525194 0.59887654 -0.4844942
000240 da 52 b4 3d 1d d0 15 3e 2a 06 07 3e 8c 19 b3 bf
       0.08804865 0.1463017 0.13185945 -1.3992171
000250 91 0e 35 3d 68 28 0f 3f 36 a1 31 c0 d4 2b 03 be
       0.044203345 0.5592103 -2.7754645 -0.12809688
000260 77 f0 76 3e c7 73 64 3e 5c 18 67 3e 16 a3 00 3e
       0.24115168 0.2230979 0.22567886 0.12562212
000270 e2 2a be bf 47 78 ab 3d 46 28 2a 3e bb 69 01 3f
       -1.4856837 0.083725505 0.16616926 0.50551957
000280 3a e1 da 3e 73 0d 48 3d 14 a2 a6 3b 4f 57 f7 3c
       0.4274996 0.04884095 0.005085239 0.030193
000290 48 5b 59 3f c6 99 e0 3f c6 6e 25 3e e4 be a9 3d
       0.8490491 1.7546928 0.16155538 0.082883626
0002a0 96 c1 cc 3f 5f 2e 4d 3f 37 fc 40 3f 13 cb 0a 3d
       1.5996578 0.8014888 0.7538485 0.033885073
0002b0 3e d8 d3 3c 5d 3f cb 3e a7 49 31 be 7a fd ab 3f
       0.025859948 0.3969678 -0.17313252 1.343673
0002c0 7a 6c 0a 3d 3f a8 ce 3f fd 33 cf 3f 5b 18 82 3f
       0.033794858 1.6145095 1.618774 1.0163683
0002d0 8d c1 ca 3c b8 d0 b4 3d 25 4f 1e 3f 0a 56 b0 3f
       0.024750495 0.088288724 0.61839515 1.3776257
0002e0 98 f3 0b 3d 5e e3 9a 3d fe 14 c4 be f7 1e 03 3e
       0.034167856 0.07562898 -0.38297266 0.12804781
0002f0 33 53 48 3e 5b 94 50 3c 27 54 1f 3e d9 21 f5 3d
       0.19562988 0.012730683 0.15559445 0.119693466
000300 b7 11 d0 bc 6a c4 f4 3c d6 bc 76 bc 17 e0 6b 3d
       -0.025399072 0.029878814 -0.01505967 0.057586756
000310 81 43 4b 3e 31 d9 26 3f 9a b2 f8 bd db 82 bc bd
       0.1984997 0.6517516 -0.121434405 -0.09204646
000320 4d eb 28 3f 4f 57 e8 bd 03 0d 32 bd e9 90 6a 3c
       0.6598404 -0.11344778 -0.04346944 0.014316776
000330 81 43 a2 bc 8d 09 c8 3f e9 c3 5c 3f 0c c9 15 3f
       -0.019807579 1.5627915 0.86236435 0.585099
000340 70 77 10 bd e7 18 0a 3f 37 cf 20 3f ac ae 6d bd
       -0.035270154 0.5394425 0.62816185 -0.05802791
000350 6b d6 30 bd bc d3 4a bd 9c f6 15 be 4b 5c 2f 3f
       -0.043173235 -0.049518332 -0.14644855 0.685002
000360 b6 73 03 bc 39 c7 03 3d 36 cc 63 3f ee 23 b7 3f
       -0.008023193 0.032172415 0.88983476 1.430784
000370 61 cc 98 3d 42 b0 5b bc a6 e0 e4 3f b4 4e 2c bd
       0.07460857 -0.013408722 1.7881057 -0.042067245
000380 09 0f fc 3b b8 50 ab 3e 51 4f 23 c0 19 40 35 bf
       0.007692222 0.3346002 -2.551716 -0.7080093
000390 fb 5b 6f 3d 75 3f 7f 3e 10 25 30 3e 07 e9 63 3e
       0.05843733 0.2492655 0.17201638 0.22256862
0003a0 93 ce 4e 3e bc 3e 55 3e e4 3b ad 3d 0f eb 56 3e
       0.2019599 0.20824713 0.08458689 0.20988105
0003b0 85 5b 84 3e a7 d9 47 3e cb 8a 04 c0 57 48 95 3e
       0.25851074 0.19516622 -2.0709713 0.29156753
0003c0 a0 e7 fb 3d a2 fd 89 3e e8 c4 90 3e db 55 44 bc
       0.12300038 0.2695132 0.28275228 -0.01198336
0003d0 4e 8f 53 3e c8 c9 df bf 55 1a a3 bb 23 48 40 3d
       0.20660135 -1.7483454 -0.0049775043 0.046943795
0003e0 0d cb fd bf 91 8b 24 c0 46 d2 d1 bc d4 10 ee bc
       -1.9827591 -2.5710185 -0.025612962 -0.029060759
0003f0 49 63 b8 3f b6 08 eb 3e 98 1a 9d 3e c3 49 24 c0
       1.44053 0.45905083 0.30684352 -2.567002

bias f4 [21]
000000 03 2d 3f 3f 0d ec f1 bf a1 ea aa 3f 68 da 51 3f
       0.7467806 -1.8900162 1.3352853 0.81973886
000010 0a f0 5c bf 8f 49 5d be 59 b1 0e 40 3c 53 a8 3f
       -0.8630377 -0.21610092 2.2295744 1.3150401
000020 dd 4f ad bf c5 af 17 3d 3a 41 68 3f 37 1a 3b be
       -1.3539997 0.03703286 0.9072453 -0.18271719
000030 11 66 ae 3f 06 2c fd 3f 81 c1 e0 3f d7 6c 8c 3e
       1.3624898 1.977906 1.7559053 0.27426788
000040 f7 11 bd 3e 32 f0 22 40 eb 73 cc 3e 22 6a 55 3f
       0.3692777 2.5459104 0.39932188 0.8336507
000050 74 0b 8f bf
       -1.117537

weight f4 [10, 21]
000000 d1 19 d2 bd 93 54 72 3e ea af 13 bd 4d 9d 44 3e
       -0.1025883 0.23665075 -0.036056437 0.1920063
000010 e4 f7 24 be 5a 17 61 3f 63 14 b5 bf 0d ea f3 be
       -0.16110188 0.87926257 -1.4146847 -0.47639504
000020 29 a1 41 3e b8 61 44 3e c6 7f a1 be 5c 2d c5 3d
       0.18909134 0.19177902 -0.31542796 0.09627792
000030 4b b2 f9 be f6 64 2d bf e9 ce 6b 3e eb 04 29 3d
       -0.4876884 -0.6773218 0.23028149 0.041264456
000040 0f 53 79 3e b5 8f 7c bf b5 6f b0 3e b7 16 0b bf
       0.2434809 -0.9865678 0.34460226 -0.54331535
000050 f2 57 9d 3d ec cb 77 be 7e 7e 33 3f 92 50 af 3e
       0.0768279 -0.24198884 0.70114887 0.34241158
000060 ca 76 96 be 42 73 d9 3e ec 6a 0a c0 39 40 b3 bf
       -0.29387504 0.42470747 -2.162776 -1.4003974
000070 bb fd 0c bf 06 5c c4 3e a6 2a 95 be 84 9d 22 be
       -0.5507466 0.38351458 -0.291341 -0.158804
000080 34 ae cb 3e 97 7a 09 bf 1f ee b1 be b1 b2 b7 3e
       0.39781344 -0.5370268 -0.34751984 0.35878518
000090 55 67 fd be 56 e1 34 bc 74 ce 21 bf 25 b9 99 3e
       -0.494929 -0.011040052 -0.6320565 0.30024067
0000a0 e1 04 99 3b 54 24 ba 3e 52 5d c8 3e 1e b2 13 bf
       0.004669771 0.3635584 0.39133698 -0.5769366
0000b0 24 50 5a bf d1 ed a4 3e 0a 85 f0 3e 54 e0 11 bb
       -0.85278535 0.3221269 0.469765 -0.0022258954
0000c0 cb 58 1a 3e f6 d8 c7 be f3 0e ba be 21 1c c7 bf
       0.15072934 -0.39032716 -0.3633953 -1.5555459
0000d0 f8 75 ee 3e ff 8b 1d be d3 6e ef bc b0 4e 08 3f
       0.46574378 -0.15385436 -0.02922765 0.5324507
0000e0 d7 b3 c6 3c ad bc 75 bf a6 fc 69 be db 06 89 bf
       0.024255676 -0.9599102 -0.22850284 -1.0705217
0000f0 17 c7 36 3e 46 eb 91 3f a0 87 42 be 80 25 fd 3e
       0.17849384 1.1399925 -0.1899705 0.49442673
000100 c3 ed e9 be 61 60 13 3e 52 93 68 3e 8f e1 12 3f
       -0.4568921 0.14392234 0.22712448 0.57375425
000110 b8 d5 b6 3c 1f e7 69 3e 32 e8 2e bf 22 10 17 bf
       0.022318706 0.22842072 -0.6832305 -0.5900899
000120 22 c2 4e 3e 00 b8 fa bd b0 c9 d7 3e 40 66 3e bf
       0.20191243 -0.122421265 0.42146063 -0.7437477
000130 5b 2a 83 bf 31 c2 4c 3e dd 59 db bc 8b c7 e7 be
       -1.0247301 0.19995953 -0.026776249 -0.45269427
000140 ad 16 c1 bf 5e cd af 3d 86 d6 b3 bf 20 65 42 be
       -1.5085045 0.085840926 -1.4049842 -0.18983889
000150 94 cc 06 be 83 42 bd be 06 af b0 bd 09 ad 70 be
       -0.13163978 -0.36964807 -0.08627133 -0.23503508
000160 cf c6 c7 be db dc 99 3e 95 79 a7 3d 4d cf 36 3f
       -0.39018866 0.30051312 0.08177487 0.71410066
000170 6d 14 da be 6b 14 35 3d 72 2b 4c bf 22 8e cc bf
       -0.4259371 0.044208925 -0.7975379 -1.5980875
000180 b1 42 84 3f ae d6 79 3f 37 72 03 be 3f 64 14 be
       1.0332853 0.975932 -0.12836538 -0.14491366
000190 a5 3d 69 bd 1b cd 59 3e 99 20 80 bf df c9 f3 bd
       -0.056943554 0.21269648 -1.0009948 -0.11903738
0001a0 5a 66 46 bf 03 98 88 3e 83 c4 17 bf 99 00 72 3e
       -0.77499926 0.26678476 -0.5928423 0.2363304
0001b0 86 62 46 be 30 5c 27 bf 83 c6 2e 3e 0c 1e 21 3e
       -0.19373521 -0.6537504 0.17067914 0.15734118
0001c0 71 ad 65 3f de eb d2 be 9e bb 9f 3e 06 8a 74 bf
       0.89717776 -0.41195577 0.31197828 -0.9552311
0001d0 0d f2 96 be 9c 43 74 bf 30 2d 9c bf dc 90 d6 3d
       -0.29481545 -0.95415664 -1.220129 0.104768485
0001e0 32 f4 03 3e b9 6e 47 3e 78 fd 73 be 6b be 02 3e
       0.12886122 0.19475831 -0.2382716 0.12767951
0001f0 34 b1 17 bf ed 4e fc 3c fd 9b f0 3e 54 6f 11 3e
       -0.59254766 0.030799353 0.4699401 0.14202625
000200 0a b4 b9 bf 77 e8 19 3d c6 c7 63 bf f9 8d 62 3e
       -1.4508069 0.03757521 -0.88976705 0.22124471
000210 65 f6 99 3e 88 65 7e bf 00 17 85 3e 68 c8 83 3e
       0.30070797 -0.99373674 0.2599411 0.25738835
000220 73 f3 bc bd e6 c1 54 bf d9 38 53 bf 75 59 d8 3e
       -0.09226122 -0.83108366 -0.8250862 0.4225575
000230 81 ae 03 bf 19 2d bc be 89 8c cc bf f3 23 16 3e
       -0.51438147 -0.36753157 -1.5980388 0.14662151
000240 91 6b bd 3e 3e e5 05 3f d6 ae 62 3e 9e e5 89 be
       0.3699613 0.5230292 0.22137007 -0.26932997
000250 ed 88 42 be fb 98 43 3e 1c b7 ef 3e 69 e3 2a bf
       -0.18997546 0.19101326 0.4681939 -0.6675325
000260 68 3c 17 bf 4f 9f 85 bc 1c d0 cf bf c7 c9 f3 be
       -0.5907655 -0.016311316 -1.6235385 -0.4761488
000270 02 e7 bb be 08 f2 47 3f 8d a6 e1 3e 0a a4 68 be
       -0.36699682 0.78103685 0.4407238 -0.22718826
000280 19 3c b2 be 14 ae d7 bd 31 0b 7b 3e 3f 22 dd bd
       -0.34811476 -0.1053125 0.24515988 -0.107975475
000290 b4 19 6c 3f d7 8f c6 ba 3a 22 7e 3e a5 94 c1 bf
       0.9222672 -0.0015149069 0.24817744 -1.5123488
0002a0 cf 98 c7 bf 1e 92 96 3d 5a fa cc 3e 93 38 55 bf
       -1.5593508 0.073520884 0.40034753 -0.8328945
0002b0 9f b5 9c be 47 2c ea be 67 37 14 c0 c3 c5 db 3e
       -0.30607316 -0.45736906 -2.3158815 0.42924318
0002c0 74 77 e4 3e 1f 63 70 3e af 42 83 3e 91 12 2d be
       0.44622386 0.23475312 0.25636813 -0.16901614
0002d0 df 97 ea 3e 23 d5 88 be 55 15 db 3d fe 27 56 3e
       0.45818993 -0.2672511 0.10697428 0.20913693
0002e0 83 52 07 3f 61 42 46 bd 89 e3 ab be c8 44 a5 3d
       0.5286028 -0.048403148 -0.33572033 0.080697596
0002f0 61 da 31 3f 92 87 7e be 03 75 36 3d 53 db 87 bf
       0.69473845 -0.24856403 0.044545185 -1.0613807
000300 66 80 f9 be 10 53 0a be 47 4f c9 3e 0e 45 be 3e
       -0.48730773 -0.13508248 0.39318296 0.3716206
000310 16 8d a2 3e 5c b7 1a 3f 76 3f 0b 3e 7b 29 5c 3e
       0.31748265 0.60436034 0.13598427 0.21500199
000320 e6 7d 27 bf a0 c7 a0 bd 78 b1 b3 bd 46 d3 36 c0
       -0.6542648 -0.078505754 -0.08774084 -2.856645
000330 a5 62 1f 3d 9c 72 32 be 20 ff cc 3e ee 4c ab bf
       0.038912434 -0.17426533 0.40038395 -1.3382852
000340 e4 2c fc 3e 97 6c 0a 3f
       0.49253 0.54071945

bias f4 [10]
000000 93 a0 1b c0 01 d3 45 bf 92 af c7 3e c1 8d bb bd
       -2.4316757 -0.7727509 0.39001137 -0.09157897
000010 e9 c4 c4 3f 70 f8 a8 3e a9 9e 59 3f 57 bd c8 3f
       1.5372592 0.33002043 0.8500772 1.5682782
000020 46 6e 85 3e 38 84 e0 bf
       0.26060694 -1.754035
